synthetic&adversarial/explainer/data/binaries/mlp.pth (torch, 11544 bytes, 7 tensors)

layer.0.weight f4 [32, 2]
0	0xbfa948dd	-1.3225361
1	0xbdeae2d9	-0.11469049
2	0xbe96fc0e	-0.29489177
3	0xbe49fe8e	-0.19726011
4	0xbe7d134c	-0.24714392
5	0x3f2d552a	0.67708075
6	0xbea2afa4	-0.31774628
7	0xbf1dfdc8	-0.61715364
8	0xbefaa12b	-0.48951086
9	0xbe6cf250	-0.2313931
10	0x3dfc7ee9	0.12328894
11	0x3f3080ef	0.6894674
12	0x3f7ad097	0.9797453
13	0xbd6d1995	-0.057885725
14	0x3e40b420	0.18818712
15	0xbf413392	-0.75469315
16	0x3f7f68cd	0.9976929
17	0x3df9744c	0.12180385
18	0x3faa7df6	1.331969
19	0x3f10f67a	0.56626093
20	0x3f039eef	0.5141439
21	0x3d6ff0e1	0.05857933
22	0x3f35d283	0.7102434
23	0x3ed0bee6	0.40770644
24	0xbe4e73b3	-0.20161323
25	0xbec8ca0f	-0.39216658
26	0xbedc8e8e	-0.4307751
27	0x3e852aea	0.26009303
28	0xbc0f8413	-0.008759516
29	0x3f2cee5a	0.67551196
30	0xbf0086b7	-0.5020556
31	0xbdf7e75a	-0.12104674
32	0x3f6c5d3b	0.9232976
33	0xbe9c3d41	-0.30515483
34	0x3dbe7d0b	0.09301194
35	0x3ed9e554	0.42557776
36	0x3dd1e67d	0.1024904
37	0xbf1d8533	-0.6153137
38	0xbe8a0bf3	-0.26962242
39	0xbe8ce2cc	-0.27516782
40	0xbca5e52f	-0.020250885
41	0xbf3ab2ae	-0.72928894
42	0x3f9f04b9	1.2423316
43	0x3f36c107	0.71388286
44	0xbe355327	-0.17707501
45	0xbe5bed7a	-0.21477309
46	0x3f3bf087	0.7341389
47	0xbee51332	-0.44741207
48	0xbf1059e6	-0.56387174
49	0xbf1ea440	-0.61969376
50	0xbf067a20	-0.525301
51	0xbf7ff48d	-0.9998253
52	0xbf2b8830	-0.6700468
53	0xbdfb8839	-0.12281842
54	0xbf017680	-0.5057144
55	0x3f1d3c1c	0.61419845
56	0x3f4d8eae	0.80295837
57	0x3ee09137	0.4386079
58	0xbf820a6b	-1.0159429
59	0x3f0eea82	0.5582658
60	0x3ed3267c	0.412403
61	0x3ecfeb36	0.4060914
62	0x3d33524e	0.043779664
63	0xbe5724cb	-0.21010129

layer.0.bias f4 [32]
0	0xbf35246b	-0.70758694
1	0xbf0f1128	-0.55885553
2	0x3f3d172c	0.7386348
3	0xbed10c8f	-0.40829894
4	0x3f810f35	1.0082766
5	0x3e602b5c	0.2189154
6	0xbef20205	-0.47267166
7	0x3ed54df2	0.4166103
8	0x3e9a8769	0.30181435
9	0x3f175377	0.5911173
10	0x3e811de6	0.25218123
11	0xbdeb02a9	-0.11475117
12	0xbe84edce	-0.2596268
13	0x3dd2bc58	0.1028983
14	0xbf21fe97	-0.632791
15	0x3e82437c	0.25442111
16	0xbf09d917	-0.5384688
17	0xbe91d023	-0.28479108
18	0xbf1fc0f2	-0.62403786
19	0xbf0b087c	-0.5430982
20	0xbf2b416a	-0.6689669
21	0xbe4e57e9	-0.20150723
22	0xbf14cd80	-0.5812607
23	0xbec39f44	-0.38207448
24	0x3f3aa428	0.7290673
25	0xbf27ef4a	-0.655995
26	0x3ece3253	0.4027277
27	0xbec7d17a	-0.39027005
28	0x3e61ce14	0.22051269
29	0xbf446862	-0.76721776
30	0xbeac38c2	-0.33637053
31	0x3f1912e8	0.59794474

layer.2.weight f4 [32, 32]
0	0x3dfc18a7	0.123093896
1	0xbd12adf4	-0.035810426
2	0xbdeb378b	-0.11485203
3	0x3c2afe54	0.010436613
4	0xbdec5ad1	-0.11540759
5	0x3e2d2612	0.16909054
6	0xbe18bfd0	-0.1491692
7	0x3dee9023	0.11648586
8	0xbe1bbd88	-0.15209019
9	0xbc3d0a63	-0.011538121
10	0xbc736831	-0.014856384
11	0xbd493d9d	-0.049131025
12	0xbe1eb807	-0.15499888
13	0xbe04f512	-0.12984112
14	0x3daefdca	0.085445
15	0x3d9f9a0b	0.07793053
16	0xbe08cd53	-0.13359575
17	0x3e2decd5	0.16984876
18	0xbe142767	-0.14468156
19	0x3c2b98d5	0.01047345
20	0x3e320ab0	0.1738689
21	0xbd828f18	-0.06374949
22	0x3d1dafaa	0.038497604
23	0xbd1a1216	-0.037614904
24	0x3c73c7be	0.014879165
25	0xbe11ae23	-0.14226584
26	0xbd748a5f	-0.059702273
27	0xbcb60ff8	-0.022224411
28	0x3e27e45a	0.16395703
29	0x3e073b12	0.13206127
30	0xbb4fb120	-0.0031691268
31	0x3c9953c3	0.018716699
32	0xbec147b9	-0.37750033
33	0x3de974a3	0.113992
34	0xbe37cc95	-0.17949136
35	0xbe5851cd	-0.21124955
36	0x3e23d747	0.1600009
37	0xbd27c56a	-0.040959753
38	0x3da7781c	0.08177206
39	0x3e4eac4a	0.2018291
40	0x3da0bba4	0.078482896
41	0xbe69d2bc	-0.22834295
42	0xbdaa6341	-0.083197124
43	0x3e0c4a4b	0.13700216
44	0xbd9bbac6	-0.076039836
45	0xbd621f7f	-0.05520582
46	0xbd277b73	-0.040889215
47	0x3dbf8d43	0.093531154
48	0x3e31b857	0.17355476
49	0xbdcec959	-0.10096998
50	0xbe9796e6	-0.29607314
51	0x3d32c5a2	0.04364551
52	0xbe67e898	-0.22647321
53	0x3de55973	0.11198702
54	0xbdc0cf17	-0.09414499
55	0x3e9791a4	0.29603302
56	0x3e6755a8	0.22591269
57	0xbea6d563	-0.32584676
58	0x3e8f735d	0.28017703
59	0xbdeeafb1	-0.11654604
60	0xbe8e0075	-0.27734724
61	0xbe83006e	-0.25586265
62	0xbd016552	-0.031590767
63	0x3da469f7	0.08028024
64	0x3c3d5e63	0.011558148
65	0xbdff733c	-0.12473151
66	0xbe20456b	-0.15651481
67	0x3dbcb6dc	0.09214565
68	0x3e146f83	0.14495663
69	0x3c4a0698	0.012330674
70	0xbda2b4d5	-0.07944647
71	0xbe13ceb3	-0.14434318
72	0xbe0a4bec	-0.13505524
73	0xbe20270a	-0.15639892
74	0xbd93c8de	-0.07216047
75	0x3e1cc2be	0.15308663
76	0xbe2d9950	-0.16953015
77	0x3c2bdbf6	0.0104894545
78	0x3e1aa2fc	0.15101236
79	0xbdab9e51	-0.08379806
80	0x3dae34ba	0.085061505
81	0x3da47545	0.0803018
82	0xbde351f6	-0.11099617
83	0x3df8fd9c	0.12157747
84	0xbde81cdb	-0.11333629
85	0xbd815bd9	-0.06316347
86	0x3e00e547	0.12587462
87	0x3dfab2a0	0.12241101
88	0xbce79fe5	-0.028274486
89	0xbe06a516	-0.13148913
90	0xbe203dae	-0.15648529
91	0x3e1e93e7	0.15486108
92	0x3e205dd1	0.15660788
93	0xbdef9dbc	-0.11700007
94	0xbdd4b4dc	-0.10386059
95	0x3e11b4f2	0.14229181
96	0x3c8962dc	0.016770773
97	0xbe1779f8	-0.14792621
98	0x3a4d66e1	0.00078354595
99	0xbdbf9d5c	-0.09356186
100	0x3da7a9b3	0.081866644
101	0x3d4cd1f0	0.0500049
102	0xbd831b79	-0.06401724
103	0x3d930064	0.07177809
104	0x3d967195	0.07345883
105	0x3d637364	0.055529967
106	0x3e259229	0.16169037
107	0xbe2924f4	-0.16518003
108	0x3d947dd6	0.07250564
109	0xbe0f37bb	-0.13986103
110	0x3d749393	0.05971105
111	0x3d87bbad	0.06627593
112	0xbe442196	-0.19153437
113	0x3cc175a2	0.023615662
114	0xbdba7ada	-0.09105463
115	0x3db028f0	0.08601558
116	0x3cee8178	0.02911447
117	0xbe29ff5c	-0.16601318
118	0x3cda55e0	0.026652277
119	0xbd6ba141	-0.05752683
120	0x3d1f03e0	0.038822055
121	0x3e3e276c	0.18569726
122	0xbe51d925	-0.2049299
123	0x3df4405c	0.11926338
124	0x3c8a2874	0.016864993
125	0x3e753b56	0.23948416
126	0xbe3452b2	-0.17609671
127	0x3e0c1c31	0.13682629
128	0x3ebd029e	0.3691606
129	0xbe0a36e6	-0.13497505
130	0x3e2726ed	0.16323443
131	0x3e012b08	0.12614071
132	0x3e953dd4	0.29148734
133	0xbd6fc7bc	-0.05854009
134	0xbea48bc1	-0.32137874
135	0xbcc3d61b	-0.023905804
136	0x3e9335df	0.28752038
137	0x3ea495c1	0.32145503
138	0x3e80bf39	0.2514589
139	0xbe91f59c	-0.28507698
140	0x3e29899b	0.16556399
141	0x3d834bbb	0.06410929
142	0xbe37264a	-0.178857
143	0x3e1ef119	0.15521659
144	0xbe1af284	-0.15131575
145	0x3dc3d8e4	0.09562853
146	0x3d316e76	0.043318234
147	0xbd049130	-0.032365024
148	0x3e033776	0.12814125
149	0xbecaff42	-0.3964787
150	0x3b09de2c	0.0021036966
151	0x3d313c11	0.043270174
152	0x3e6131b0	0.2199161
153	0x3e948bb9	0.2901285
154	0x3d462518	0.04837522
155	0xbc645b72	-0.013937818
156	0x3daaa6a3	0.08332565
157	0x3e9d449d	0.3071641
158	0x3dfbaff9	0.122894235
159	0x3d7046bd	0.05866121
160	0xbe8a6b84	-0.27035153
161	0x3d4997bc	0.04921697
162	0xbe69a139	-0.22815408
163	0xbe6c0928	-0.23050368
164	0x3e9d8ed4	0.30773032
165	0xbe2279e6	-0.15866813
166	0x3e309c3b	0.17247097
167	0xbda35960	-0.07976031
168	0xbd22fca4	-0.039791718
169	0x3e03020c	0.1279375
170	0xbda84505	-0.082162894
171	0xbdf6ee9a	-0.120572284
172	0xbe94d93c	-0.29071987
173	0x3ca0504c	0.019569539
174	0xbd809bed	-0.062797405
175	0xbd3399cc	-0.043847844
176	0xbdc9b828	-0.09849578
177	0xbdc4d7ef	-0.096114986
178	0xbdf4e583	-0.119578384
179	0xbded5901	-0.11589242
180	0xbea903b2	-0.33010632
181	0xbdf1c4e4	-0.11805132
182	0x3d741608	0.059591323
183	0xbe4c15d2	-0.19930199
184	0x3e53152b	0.20613544
185	0xbf0bc48d	-0.5459679
186	0x3e5ab72a	0.21358934
187	0xbe45844f	-0.19288753
188	0x3d014213	0.031557154
189	0xbe815f66	-0.25268096
190	0x3e0d4cf7	0.13798891
191	0x3e7ca338	0.24671638
192	0x3dafc921	0.08583284
193	0x3dc674f0	0.09690273
194	0xbe04ced8	-0.1296953
195	0x3b66b6d2	0.0035204184
196	0xbe41feb4	-0.18944818
197	0xbda6a818	-0.0813753
198	0xbd73f5cb	-0.05956058
199	0xbd33a9c9	-0.04386309
200	0xbdec6c0f	-0.11544048
201	0xbd8f22f2	-0.06989087
202	0xbd211236	-0.039324008
203	0xbe11e1d2	-0.142463
204	0xbe0cca85	-0.1374913
205	0xbe2d3b41	-0.16917135
206	0x3cffd8d3	0.03123132
207	0xbdc9727f	-0.098362915
208	0xbe0d6068	-0.13806307
209	0x3dd09777	0.101851396
210	0x3d9d173e	0.07670449
211	0x3cd5c6aa	0.026095707
212	0x3df9e54f	0.1220194
213	0xbc3c4849	-0.0114918435
214	0xbd843d17	-0.064569645
215	0xbce3288a	-0.027729291
216	0x3e1a22ec	0.15052384
217	0xba5f9fb1	-0.0008530571
218	0x3d1032f3	0.03520484
219	0xbc2d8454	-0.0105906315
220	0x3d4096cc	0.04701881
221	0x3e1e78f5	0.15475829
222	0x3dd05020	0.10171533
223	0x3d8a7d84	0.067622215
224	0xbe1361ae	-0.1439273
225	0x3d89f47b	0.06736084
226	0x3c2d69c7	0.010584301
227	0xbe1fc120	-0.15601015
228	0xbd43d67b	-0.047811966
229	0x3dec4e27	0.11538344
230	0x3e1c5992	0.15268543
231	0xbdd9db7f	-0.10637569
232	0x3e4dbab0	0.20090747
233	0x3cba5af4	0.022748448
234	0xbdfb5a64	-0.122731
235	0x3c84ce62	0.016211692
236	0x3dc70d12	0.0971929
237	0x3e5be5b2	0.2147434
238	0x3cba17a8	0.022716358
239	0x3d2bd7fa	0.04195402
240	0x3e125140	0.14288807
241	0xbdb4e621	-0.08832956
242	0xbab192d3	-0.0013547785
243	0xbe0092aa	-0.12555948
244	0xbe479cf5	-0.19493468
245	0x3e7395fe	0.23787686
246	0xbda21230	-0.07913625
247	0x3e028270	0.1274507
248	0xbda9e518	-0.08295649
249	0x3c27548b	0.010213028
250	0x3dc94fd4	0.09829679
251	0x3e356eed	0.17718096
252	0xbe41be3d	-0.18920226
253	0xbdc569e3	-0.09639337
254	0x3d428082	0.047485836
255	0x3e41e941	0.18936636

layer.2.bias f4 [32]
0	0xbe2915ae	-0.16512176
1	0x3d904542	0.0704446
2	0x3d094038	0.03350851
3	0xbda59037	-0.080841474
4	0x3da2ced9	0.07949609
5	0x3dc8c2b7	0.09802764
6	0x3cc80c7f	0.024420021
7	0x3e667f0a	0.22509399
8	0x3cf92399	0.030412482
9	0xbce2d796	-0.02769069
10	0xbe1745d2	-0.14772728
11	0xbdaae01f	-0.08343529
12	0xbe0c0f51	-0.13677718
13	0x3e14ac9b	0.14518969
14	0xbe02367d	-0.12716098
15	0x3cdfddcb	0.027327439
16	0xbe0dc311	-0.13843943
17	0x3e5a45cd	0.2131569
18	0xbe00cf22	-0.12579015
19	0x3bd410f0	0.0064717457
20	0xbc732b4f	-0.014841869
21	0xbdff888a	-0.12477215
22	0x3d211301	0.039324764
23	0xbdb20b00	-0.08693504
24	0x3c8ed954	0.017437615
25	0xbd89a40f	-0.06720745
26	0xbda74cf8	-0.081689775
27	0x3e2560c5	0.16150196
28	0x3dc520a1	0.09625364
29	0x3e7d18c2	0.24716476
30	0xbea18c8b	-0.31552538
31	0xbde9f3b0	-0.11423433

layer.4.weight f4 [32, 32]
0	0xbdf19b3d	-0.117971875
1	0xbd3a31ba	-0.04545758
2	0x3d9c242e	0.07624088
3	0xbd8c70ce	-0.06857453
4	0x3c046eaf	0.00808303
5	0xbde094da	-0.10965891
6	0x3de1eace	0.110311136
7	0x3dc370c8	0.09542996
8	0x3cdd0ca3	0.026983565
9	0x3d9ff160	0.078097105
10	0x3e106231	0.14099957
11	0xbe07aab1	-0.13248707
12	0x3e952eb7	0.29137203
13	0xbde677af	-0.112532966
14	0xbe26da14	-0.16294128
15	0xbe451ba4	-0.19248825
16	0x3e194876	0.14969048
17	0x3d3da987	0.046304252
18	0x3aadf5f0	0.0013272148
19	0xbdbee359	-0.09320707
20	0x3e2733aa	0.16328302
21	0x3d5d26e6	0.053992175
22	0x3e595d8b	0.2122709
23	0xbd0efe4c	-0.034910485
24	0xbdfb3316	-0.12265603
25	0xbe089ffd	-0.1334228
26	0xbe266e36	-0.1625298
27	0x3dfe03f6	0.12403099
28	0xbc561082	-0.013065459
29	0xbd392e29	-0.045210037
30	0xbd71ed19	-0.059064005
31	0xbde260e7	-0.11053639
32	0x3ccc9c15	0.02497677
33	0xbde95386	-0.11392884
34	0x3d8503be	0.064948544
35	0x3cee82a8	0.029115036
36	0xbdd9104e	-0.10598813
37	0xbddceebe	-0.10787724
38	0x3e0a6b65	0.1351753
39	0x3de0d91f	0.109789126
40	0xbd77e4c1	-0.06052089
41	0x3e1ba61f	0.15200089
42	0x3d21c0c2	0.03949047
43	0xbcbc7ad8	-0.023007795
44	0xbcfd4a12	-0.030919109
45	0x3d9e344e	0.0772482
46	0xbc692233	-0.014229345
47	0x3e5a22fa	0.21302405
48	0x3da3fe3e	0.08007477
49	0x3da92f38	0.082609594
50	0x3cf731bb	0.03017508
51	0x3e037109	0.12836088
52	0x3d2c636b	0.042087
53	0xbd882452	-0.066475525
54	0x3c0161d2	0.007896857
55	0x3e054083	0.1301289
56	0xbc830b2e	-0.015996542
57	0xbccd3da8	-0.025053814
58	0x3d4121fa	0.047151543
59	0xbc34dd39	-0.011039072
60	0xbe116678	-0.14199245
61	0xbcbc34ac	-0.022974335
62	0x3e8fb1b1	0.28065255
63	0xbe33dee3	-0.17565493
64	0xbdb8dbeb	-0.09026321
65	0x3d2c1c19	0.042018984
66	0xbdc9b0f2	-0.09848203
67	0x3e0af4c1	0.13569929
68	0xbcb2df72	-0.021835063
69	0xbd87bb90	-0.066275716
70	0x3cccf8ef	0.025021045
71	0x3e48e041	0.19616796
72	0x3c6855ec	0.014180642
73	0x3d22940e	0.039691977
74	0xbdaf28b1	-0.08552683
75	0xbd2f9ebb	-0.042875987
76	0xbe082572	-0.13295534
77	0x3e2a9a23	0.16660361
78	0x39895285	0.00026192158
79	0x3d2d809e	0.042358987
80	0x3e186c01	0.1488495
81	0x3d3508a8	0.04419771
82	0x3c95f06b	0.018303117
83	0x3cdca84b	0.026935717
84	0xbc474146	-0.0121615585
85	0x3d171c6f	0.03689235
86	0x3d081fa4	0.0332333
87	0xbd33b9fe	-0.043878548
88	0xbd8b4464	-0.06800154
89	0xbc57e717	-0.013177655
90	0xbd9be74a	-0.07612474
91	0xbe0ef883	-0.13961987
92	0xbe142eb7	-0.14470945
93	0xbd9c11e2	-0.076205984
94	0x3e4567dd	0.19277902
95	0x3c15470e	0.009111179
96	0x3d9d0a64	0.076679975
97	0x3e93765f	0.28801247
98	0xbe2aee67	-0.16692506
99	0xbe5f124c	-0.21784323
100	0xbc9f6962	-0.01945943
101	0x3eae3470	0.34024382
102	0x3cd25ac1	0.02567804
103	0x3c5b6cdb	0.013392652
104	0x3d24c514	0.04022701
105	0x3e68ecd1	0.22746588
106	0x3def2373	0.11676683
107	0xbd2305d7	-0.03980049
108	0xbea441d2	-0.32081467
109	0x3eab9a11	0.3351598
110	0x3df1300b	0.117767416
111	0x3e9b4ab6	0.30330437
112	0x3ddb1ad3	0.10698476
113	0xbe29092e	-0.16507408
114	0xbe3b8235	-0.18311389
115	0xbd6aa927	-0.057290222
116	0xbeaa7e84	-0.3329965
117	0x3dce8ad5	0.10085074
118	0xbea0e1ae	-0.3142218
119	0x3e546cd9	0.20744647
120	0xbddb7196	-0.10715024
121	0x3daf9b98	0.08574599
122	0x3e072d14	0.1320079
123	0x3e3617b8	0.17782485
124	0xbe1691f0	-0.14704108
125	0x3eb2f271	0.34950593
126	0x3eb2076c	0.34771287
127	0xbe006922	-0.12540105
128	0x3dfc1929	0.123094864
129	0x3eb3aaab	0.35091147
130	0xbdb2431c	-0.08704206
131	0xbcf76a74	-0.030202128
132	0x3cfc90ba	0.03083073
133	0x3e9d6f10	0.30748796
134	0xbe0ffa8b	-0.14060418
135	0x3e7cda2e	0.24692604
136	0xbd8b6e59	-0.068081565
137	0x3e474ea9	0.194636
138	0xbd12d61e	-0.03584873
139	0x3ce33cca	0.027738947
140	0xbd213441	-0.039356474
141	0x3e9e2ede	0.30895132
142	0x3e0f94a1	0.14021541
143	0x3e898544	0.26859486
144	0xbe26b17e	-0.16278645
145	0xbe2bbe23	-0.1677175
146	0xbe252edb	-0.16131155
147	0xbbdf96ca	-0.0068233954
148	0xbee38b37	-0.4444215
149	0xbdf3e512	-0.11908926
150	0xbe9949a5	-0.29939
151	0x3ddfa486	0.10920052
152	0x3d299fdf	0.04141223
153	0xbdfc003c	-0.12304732
154	0x3e534fcc	0.20635909
155	0xbd40af60	-0.04704225
156	0xbdb8c495	-0.0902187
157	0x3e53dcd7	0.20689712
158	0x3ea6bc5a	0.32565576
159	0x3e08cd4d	0.13359566
160	0x3daffbd1	0.08592952
161	0xbed4cc24	-0.41561997
162	0xbe21e90a	-0.15811554
163	0x3e6be9b3	0.23038368
164	0x3f186a9f	0.5953769
165	0xbe92a855	-0.28644052
166	0xbde47ff3	-0.11157217
167	0xbd626991	-0.055276457
168	0x3e28b1d3	0.16474085
169	0xbd070565	-0.03296413
170	0x3d171f99	0.03689537
171	0x3dc3c730	0.095594764
172	0x3f2bdbb7	0.67132133
173	0xbe97eb78	-0.29671836
174	0x3dee373b	0.11631628
175	0xbec76d27	-0.38950464
176	0x3e234338	0.1594361
177	0x3e7b3e2f	0.2453544
178	0x3e42e3a4	0.1903215
179	0x3d4818ef	0.048851904
180	0x3f42bc81	0.76068884
181	0x3ddcfb9c	0.10790178
182	0x3eb64938	0.35602736
183	0xbe09e0be	-0.13464639
184	0xbddfecdd	-0.1093385
185	0x3df1f56d	0.118143894
186	0x3d749374	0.059710935
187	0x3e0c689d	0.13711782
188	0xbdd817db	-0.10551425
189	0xbeeb023b	-0.4590014
190	0xbe4f7df6	-0.20262894
191	0xbd92f080	-0.07174778
192	0xbde36406	-0.11103062
193	0x3e476b86	0.1947461
194	0x3ced2161	0.02894658
195	0x3de0972b	0.10966333
196	0xbcb9a685	-0.02266241
197	0x3e87d1d1	0.26527265
198	0xbd889d79	-0.066706605
199	0xba90e6e8	-0.0011055144
200	0x3df85dfc	0.12127301
201	0x3de4c780	0.11170864
202	0xbe316b92	-0.17326191
203	0x3d8b5be9	0.0680464
204	0xbe65ff20	-0.22460604
205	0xbdae94a4	-0.08524445
206	0xbe2b19c6	-0.1670905
207	0x3ce80667	0.028323365
208	0x3d69630b	0.05697922
209	0xbdb1c80a	-0.086807325
210	0xbe4fc676	-0.2029055
211	0xbd87b4f4	-0.06626311
212	0xbda1227b	-0.07867905
213	0xbd97d80c	-0.074142545
214	0xbe8a850a	-0.27054626
215	0x3e422322	0.18958715
216	0xbc10de85	-0.008842115
217	0xbdfb4197	-0.1226837
218	0xbe0cf889	-0.13766684
219	0x3e3174ed	0.1732976
220	0xbda5b115	-0.08090416
221	0x3e99ec68	0.30063176
222	0xbdade4e5	-0.08490924
223	0xbd97b8fa	-0.07408328
224	0xbe14e3e2	-0.14540055
225	0x3e81b3a1	0.25332358
226	0xbd301af2	-0.042994447
227	0xbda5fa2f	-0.08104359
228	0x3d70ef2e	0.05882185
229	0x3dadfd39	0.08495564
230	0x3e192ccd	0.14958496
231	0x3e76b363	0.24091868
232	0xbe5e2a97	-0.21695934
233	0xbd16164d	-0.03664236
234	0x3d882873	0.0664834
235	0x3e0f31d8	0.13983858
236	0xbeb959c4	-0.36201298
237	0x3ead1805	0.33807388
238	0xbdec3486	-0.115334556
239	0x3e9c135a	0.30483514
240	0xbde76f28	-0.11300498
241	0xbe68ce3e	-0.22734925
242	0xba0e36c0	-0.00054250285
243	0x3e4104f0	0.1884954
244	0xbea7108a	-0.32629806
245	0xbc57d732	-0.013173865
246	0xbdb5866a	-0.08863528
247	0x3db01830	0.085983634
248	0x3caae68a	0.020861883
249	0xbe22a4c3	-0.15883164
250	0xbca821bf	-0.020523904
251	0xbdf30bb7	-0.11867469
252	0xbd9a0c0d	-0.0752183
253	0x3e537392	0.20649555
254	0x3eb7d1eb	0.35902342
255	0xbd34cb47	-0.044139173

layer.4.bias f4 [32]
0	0x3e14e31e	0.14539763
1	0xbe033a40	-0.1281519
2	0xbdd1b770	-0.10240066
3	0x3eb873f4	0.36025965
4	0x3e3cd88d	0.18441983
5	0x3e17bf13	0.14818983
6	0x3e2e077a	0.1699504
7	0x3deffc15	0.11718003
8	0xbe0e93ac	-0.1392352
9	0xbe301be3	-0.17198138
10	0xbe1520bc	-0.14563268
11	0x3e573417	0.21015964
12	0xbe2b2710	-0.1671412
13	0x3ea27860	0.31732464
14	0xbd1f679e	-0.038917176
15	0x3e04eecd	0.1298172
16	0x3e620ca1	0.2207513
17	0xbe6340b5	-0.22192653
18	0xbdb61a50	-0.088917375
19	0xbe1cbe92	-0.15307072
20	0xbc48edbb	-0.012263711
21	0x3e15c7ff	0.14627074
22	0x3e2e5395	0.17024072
23	0xbcb8dd7a	-0.022566546
24	0x3e779c1e	0.24180648
25	0xbd8d2fd8	-0.06893891
26	0xbe3178e4	-0.17331272
27	0x3e8fd9d6	0.28095883
28	0x3de605c1	0.11231566
29	0x3dbe4fff	0.09292602
30	0x3dbb5330	0.09146726
31	0xbdeda8d1	-0.11604465

last_fc.weight f4 [1, 32]
0	0x3edf1d04	0.43576825
1	0xbe9c53f0	-0.3053279
2	0xbe32844f	-0.17433284
3	0xbf84bd81	-1.0370332
4	0xbf6ced25	-0.92549354
5	0x3fc33e63	1.5253414
6	0xbf024eec	-0.50901675
7	0xbf57835a	-0.841848
8	0x3d8c9a29	0.06865341
9	0xbd0fc0c0	-0.03509593
10	0xbd0671a0	-0.032823205
11	0x3f45ecd8	0.7731452
12	0xbe0397d4	-0.12850887
13	0xbfb8f364	-1.4449277
14	0x3f8ed601	1.1159059
15	0xbf1809c8	-0.59389925
16	0xbee2ac55	-0.44272104
17	0xbe05f1f6	-0.13080582
18	0xbe98fbf2	-0.2987972
19	0x3e1f5983	0.1556149
20	0xbe94d0be	-0.29065508
21	0x3f25f08d	0.64820176
22	0x3f15e196	0.5854734
23	0x3c763b82	0.015028836
24	0xbe9c1606	-0.30485553
25	0xbe07f699	-0.13277663
26	0x3e1400a5	0.14453371
27	0xbf3c4e4b	-0.73556966
28	0x3f7e0e85	0.99240905
29	0x3e9168b7	0.28400204
30	0x3e3136d2	0.17306069
31	0xbe33ecdd	-0.17570825
