synthetic&adversarial/explainer/data/binaries/mlp_new.pth (torch, 11652 bytes, 7 tensors)

layer.0.weight f4 [32, 2]
00000000: 269e 8ebf 5677 02be a682 90be b61d 46be
00000010: 9b9c d5be e419 4d3f ac2c dabe 1d10 d8be
00000020: abd4 06bf 0b36 debd 30aa e63d a863 383f
00000030: 68aa 383f e4e1 62be 659f ce3e b3dc 25bf
00000040: a00a 463f 637c abbe 8959 4e3f 760c 8a3e
00000050: f705 fc3e 10e8 103d b47a 033f 188c 943e
00000060: 5ff2 2dbe 2a96 99be 7bbf d9be d30c 583e
00000070: b1ca dcbd be69 043f 624d fabe 3e45 8abd
00000080: 6dc4 493f 3bc2 abbe 82c0 a33d c70a bb3e
00000090: b865 4c3e f03a 08bf 6f42 83be 6ea1 8abe
000000a0: 92cc 0ebe 2b8d dfbe bc6e 4b3f 2540 253f
000000b0: 2753 35be 7aed 5bbe 2045 323f e550 bcbe
000000c0: 1f97 45bf 37dc 01bf d426 80bf c854 dabe
000000d0: 1fd4 37bf 70d4 1bbe 17e6 09bf b9d3 183f
000000e0: 33ad f93e dc44 8c3e dafb 74bf 0691 ce3e
000000f0: 63ae 953e b9a5 d43e 2acb da3c 7c9f 3cbe
-1.1142013 -0.12740836 -0.28224677 -0.19347271 -0.41721043 0.8011763 -0.42612207 -0.42199793
-0.52668256 -0.10850152 0.112629294 0.72027063 0.7213502 -0.22156483 0.40355983 -0.64789885
0.7735996 -0.33493337 0.8060537 0.26962632 0.492233 0.035377562 0.51359105 0.29013133
-0.16986988 -0.2999738 -0.425289 0.21098642 -0.10780848 0.5172385 -0.48887163 -0.06751488
0.78815347 -0.33546624 0.07995702 0.3653166 0.19960678 -0.5321493 -0.25636622 -0.27076286
-0.13945225 -0.4366239 0.7946584 0.64551 -0.17707501 -0.21477309 0.69636726 -0.36780468
-0.7718372 -0.50726646 -1.0011849 -0.42642808 -0.71808046 -0.15217757 -0.53866714 0.59698063
0.48764953 0.27396286 -0.95696795 0.4034502 0.2923461 0.41532686 0.026708204 -0.18420213

layer.0.bias f4 [32]
00000000: bc6a 1abf b7ea 10bf 3404 ab3e fb08 65be
00000010: d58f 703f 2a49 893d 0b0c e9be e910 b33e
00000020: a72a 1a3f 45de d63e cb85 913e 60cb 65be
00000030: c90d b9bd f97a 833d a4bb 2cbf df63 8c3e
00000040: 157e e8be c78d a5be fc27 c6be 36fc 0cbf
00000050: d566 13bf ee81 0ebf 80cd 14bf dcbc b9be
00000060: 2dce f73e 4994 f0be 18c7 b13e b7ae cabe
00000070: 44f5 883e a73a 31bf c20d dbbe d204 1c3f
-0.60319114 -0.56608146 0.33401644 -0.22366707 0.9396947 0.06703408 -0.45517 0.3497384
0.6022133 0.41966453 0.28422388 -0.22440863 -0.090358324 0.064199395 -0.67473817 0.27419946
-0.45408693 -0.3233473 -0.3870238 -0.55072343 -0.57578784 -0.55667007 -0.5812607 -0.362769
0.48399487 -0.46988133 0.3472221 -0.39586422 0.26749623 -0.6923012 -0.42783934 0.60944855

layer.2.weight f4 [32, 32]
00000000: a718 fc3d f4ad 12bd 8e38 ebbd 54fe 2a3c
00000010: 3b5b ecbd 9325 2d3e d0bf 18be 2390 ee3d
00000020: 88bd 1bbe 030f 3dbc a869 73bc 1b3e 49bd
00000030: 07b8 1ebe 4ff5 04be 7ffd ae3d e699 9f3d
00000040: 53cd 08be a4ec 2d3e 6727 14be d598 2b3c
00000050: b00a 323e 918f 82bd aaaf 1d3d 1612 1abd
00000060: bec7 733c 23ae 11be 5f8a 74bd 6a12 b6bc
00000070: eae3 273e d33a 073e 9eb6 4fbb 3553 993c
00000080: 5731 8abe 3466 ea3d 5fde c33c 3f06 edbd
00000090: 066f f03d 67bf 0d3d eb4a a6bc faf5 6e3e
000000a0: 403e 203e 2251 80bd c1ce 80bd 46be d53d
000000b0: df1a 023c 2295 dcbc da5b 18bd 6552 c73d
000000c0: cf1d 273e d9c9 d0bd dd57 a9bd 6842 353d
000000d0: af18 68bd 2513 dd3d 17cf c0bd 25f9 ad3e
000000e0: d538 883e 632d 9abe e49d 9d3e 3ef1 10bd
000000f0: 3e6b 1abe 5a52 00be 9d91 ebbc d82c 713d
00000100: 09fa 3d3c 3c73 ffbd 70d4 19be de84 bc3d
00000110: c88f 123e 02d5 983c d5b4 a2bd 9f17 14be
00000120: 5095 0abe d8b5 1dbe 7cad 93bd 5e12 1d3e
00000130: 8e9d 2dbe 5f36 4b3c aaba 1c3e 642b aebd
00000140: ba34 ae3d d5a7 a63d f651 e3bd 9cfd f83d
00000150: db1c e8bd a503 80bd 47e5 003e a0b2 fa3d
00000160: 927d 05bd 16a5 06be 58f3 21be bbe2 243e
00000170: 12e8 233e 4db9 e5bd ece1 d3bd 3eca 0f3e
00000180: d0a5 303d 7789 16be 4ea7 793c 8084 efbd
00000190: a3a8 f53d a3ec c63d 556e 3cbd 25e9 a43d
000001a0: 15db be3d 0fe2 3dbb dbe0 413e 3700 06be
000001b0: 79cb 283d 5a77 edbd 19f1 d83d e327 643d
000001c0: e897 5cbe 5fff 593d 1408 38be 9a5d b23d
000001d0: 4abe f8bc 5971 e6bd e055 da3c 1811 adbd
000001e0: 1029 cdbd 2f0e 6b3e c183 6fbe 2600 3b3e
000001f0: 5639 1fbc c0d5 8c3e b9b7 2cbe 8213 173e
00000200: ae53 843e fbbf 0abe 9dc8 853e 1eef 613d
00000210: 82cc 923e fa23 f73d 018a 68be 6a4d f6bb
00000220: 4568 8d3e 33f8 b83d fd09 823e a905 24be
00000230: 7085 e93d c635 003e fba8 aabd 2595 033e
00000240: 1cf8 aabd 376b 1b3e bf8c b7bd 4a40 07bd
00000250: 113c c23b acf8 62be 2cde 093b c4bf 943d
00000260: 65a2 01be 828b 833e 8c12 52bc 1ee6 f43d
00000270: f00c 403c cb76 893e 12c7 0b3e 0d83 703d
00000280: c7fd cfbd 2535 4d3d 5400 11bd 2411 89bc
00000290: 1879 6c3e 32df bcbd 8cd5 d13b ff42 e1bd
000002a0: 3e25 edbd 16f5 803d 43fc ebbd 0d64 fabd
000002b0: 1472 22be f070 9f3d f244 4fbd f877 d8bc
000002c0: 9c5c 0ebe 1793 b7bd c513 e93d 033f ebbd
000002d0: 32a9 4abd ceeb e3bd 0816 743d 88e4 2dbe
000002e0: 203b 1c3e e31b 3bbe 5672 6c3e cac8 9dbd
000002f0: c2b7 60bc 8b5a abbd d34a 0d3e ba6d 1b3e
00000300: 339d ad3d d365 c63d ab67 05be 3712 1c3c
00000310: 2936 34be 18a8 a6bd cbf5 73bd 398c b2bc
00000320: 6d1c d9bd f222 8fbd 2eb5 0abd d2e1 11be
00000330: 28e2 08be 55d6 2dbe d3d8 ff3c 5dcf c4bd
00000340: a464 0cbe 7797 d03d 9833 a93d 0679 d53c
00000350: ed39 043e 4948 3cbc 173d 84bd 8138 a4bc
00000360: 8987 2a3e 17c9 083c 9df6 1b3d 4f80 30bc
00000370: cc96 403d 9bd9 1d3e 2050 d03d e7d4 a13d
00000380: a90d 0abe 175b 8a3d 3cca 113c 7e9f dbbd
00000390: d714 b4bd b700 d43d 6423 cf3d 0af4 cabd
000003a0: 05ec 403e 6ea8 f93d 96a9 14be 591d 51bd
000003b0: 4bda 0a3e 389f 413e db3f 843a 9c12 f33c
000003c0: e91f fd3d 9553 cebd aa39 9f3d ec50 00be
000003d0: bc7d 07be ba27 233e 3012 a2bd 2716 ec3d
000003e0: cca5 d83c 233e e13c 28c0 b83d c59f 2c3e
000003f0: 1c47 ffbd 39de a5bd 82e2 343d 2048 303e
0.123093896 -0.035810426 -0.11485396 0.010436613 -0.11540838 0.16908865 -0.1491692 0.11648586
-0.15209019 -0.011539224 -0.014856733 -0.049131494 -0.15499888 -0.12984203 0.08544444 0.07793026
-0.13359575 0.16984802 -0.14468156 0.01047345 0.1738689 -0.06375039 0.038497604 -0.037614904
0.014879165 -0.14226584 -0.059702273 -0.022225577 0.16395536 0.13206033 -0.0031694542 0.018716434
-0.26990768 0.11445275 0.023909746 -0.11573457 0.11739926 0.034606364 -0.020299396 0.2333602
0.15648746 -0.06265475 -0.06289435 0.104366824 0.007940977 -0.02692658 -0.03719697 0.097325124
0.16319965 -0.101947494 -0.08268712 0.044252783 -0.056664165 0.10794667 -0.09414499 0.33979145
0.2660586 -0.30112752 0.30784523 -0.035386316 -0.15079972 -0.12531415 -0.028755957 0.058880657
0.011595258 -0.12473151 -0.15022445 0.0920503 0.1431266 0.018656258 -0.07944647 -0.14462136
-0.1353352 -0.15401399 -0.07210824 0.15339038 -0.16954634 0.0124031 0.15305582 -0.0850437
0.085061505 0.0813748 -0.11099617 0.12157747 -0.11333629 -0.06250695 0.12587462 0.12241101
-0.032590456 -0.13148913 -0.15815485 0.16102116 0.16006497 -0.11216984 -0.103458256 0.14041993
0.04312688 -0.14700876 0.015237642 -0.11695194 0.119950555 0.097131036 -0.04600366 0.08052281
0.0931913 -0.0028973853 0.18933432 -0.1308602 0.04120967 -0.1159503 0.10592861 0.0557021
-0.21542323 0.053222056 -0.17971832 0.08709259 -0.030364174 -0.11252088 0.026652277 -0.08450526
-0.10017598 0.2295463 -0.23390104 0.18261775 -0.00971826 0.27506828 -0.1686696 0.14753535
0.25845093 -0.13549797 0.26129618 0.05515968 0.28671652 0.12067409 -0.22708894 -0.0075165527
0.27618614 0.09031715 0.25398245 -0.16017784 0.11402404 0.12520513 -0.08333012 0.12849863
-0.08348104 0.15177618 -0.08962392 -0.033020295 0.0059275706 -0.22165173 0.0021036966 0.07263139
-0.12659605 0.25692374 -0.012821805 0.11957954 0.011721835 0.26848444 0.13650158 0.05871873
-0.10155826 0.05009951 -0.035400704 -0.016731806 0.23093069 -0.092222586 0.0064036306 -0.109991066
-0.11579369 0.062967464 -0.115227245 -0.122261144 -0.1586383 0.07785213 -0.05060286 -0.026424393
-0.13902515 -0.08963602 0.11380724 -0.11486628 -0.049477763 -0.111289605 0.059591323 -0.16981709
0.1525693 -0.18272357 0.2309049 -0.07704313 -0.013715686 -0.08366879 0.13798074 0.15178576
0.08477249 0.0968739 -0.13027827 0.009525827 -0.17598785 -0.0813753 -0.05956058 -0.021795379
-0.10601125 -0.06989087 -0.033864193 -0.142463 -0.13367522 -0.16976292 0.03123132 -0.09609864
-0.13710266 0.101851396 0.08261794 0.026058685 0.12912722 -0.0114918435 -0.064569645 -0.020046474
0.16653265 0.008348725 0.038076986 -0.010772779 0.04701881 0.15415041 0.10171533 0.07901936
-0.13481773 0.06755655 0.008898314 -0.1072378 -0.087930374 0.10351699 0.10114172 -0.09909828
0.18840034 0.121903285 -0.14517817 -0.05105338 0.13559835 0.18908393 0.0010089831 0.02967196
0.12359602 -0.10074536 0.077746704 -0.12530869 -0.13231558 0.15933123 -0.07913625 0.11527663
0.026446246 0.02749545 0.09021026 0.16857822 -0.12464735 -0.08099026 0.044161327 0.17215014

layer.2.bias f4 [32]
00000000: 2316 29be 9ce7 f43c a7ae 083d b26a c0bc
00000010: bbc2 263e 12d9 52bd 6995 123d a482 303e
00000020: 85fe 7fbc 0890 1fbe 833d 1abe 1fe0 aabd
00000030: 10a7 993d 1763 ef3d 7d36 02be 87be 13bc
00000040: 9a7b 0dbe 2a22 8b3e 8ae0 c4bd a0d0 dd3c
00000050: 3315 d23d 7aec 00be 576f 113e 60f8 7ebd
00000060: 3231 3abd 0fa4 89bd 7542 49bd cc62 033e
00000070: a120 c53d 27bc d53d c359 a0be b0f3 e9bd
-0.1651235 0.029895596 0.033369686 -0.023488376 0.16285221 -0.051476546 0.03578702 0.17237335
-0.015624647 -0.15582287 -0.15062527 -0.08343529 0.07502568 0.11688822 -0.12716098 -0.009017593
-0.13816682 0.27174503 -0.0961314 0.02707702 0.1025795 -0.12590209 0.14202629 -0.062248588
-0.045457073 -0.06720745 -0.049135644 0.12830657 0.09625364 0.10436278 -0.31318483 -0.11423433

layer.4.weight f4 [32, 32]
00000000: 3d9b f1bd de49 83ba c0d2 a13d f796 c4bc
00000010: 9bc0 803b be39 29bd ae1e e33d 2d8a eb3d
00000020: e288 fc3c 7424 e93d 1416 0f3e b1aa 07be
00000030: 3c5d a23e 26d7 92bd 14da 26be d367 24be
00000040: 5848 193e 0f83 553d 1fb9 85bb 2965 bebd
00000050: cc83 c43d 8b53 5d3d e93a 1e3e 0ae6 b93c
00000060: 20f3 e0bd fd9f 08be 6837 2dbe b0bc c63d
00000070: 8210 56bc 8231 8c3a d40c 94bd e760 e2bd
00000080: 159c cc3c 311f fabd be03 853d f777 4e3c
00000090: 7479 c6bd 26e0 e7bd 656b 0a3e f79b b03d
000000a0: 8b1f 35bd e7c3 113e 0f72 473d d87a bcbc
000000b0: 6ac8 cdbc 1b67 903d 3322 69bc be5c 543e
000000c0: 3efe a33d 82d2 bb3d 0330 293d 4abc cd3d
000000d0: 14c4 803d 723a 88bd c755 533b 185e f33d
000000e0: d9bf a8bc a83d cdbc 6567 403d 713b 81bc
000000f0: 7866 11be 80a7 f7bc 1b0a 693e e3de 33be
00000100: ebdb b8bd f71b 493d 9daf c9bd 6239 053e
00000110: d801 6bbc ea89 94bd eff8 cc3c 4061 3c3e
00000120: 60a7 523c e979 223d b128 afbd bb9e 2fbd
00000130: e8ec 08be ba85 3b3e 8552 8939 6ea5 6b3d
00000140: 016c 183e edda 143d 82ad 963c 638e de3b
00000150: 971f debc 0d05 173d 34a0 f93c acb6 33bd
00000160: 3944 8bbd 17e7 57bc b8b1 71bd feba 13be
00000170: b72e 14be 300c 93bd 55b8 293e 0e47 153c
00000180: 640a 9d3d c515 733e cd4b 2abe 4484 73be
00000190: 9a26 2b3d 41c1 0f3e fcaa c73c 75db 4ebd
000001a0: e662 ea3c 62b4 2f3e 40af f93d d705 23bd
000001b0: 41f8 6bbe e8dc 953e 0b30 f13d 925f 8a3e
000001c0: fa44 db3d 76b2 01be 13e6 36be 6a40 fabd
000001d0: c7b0 2bbe a84d ce3d 7bb5 2ebe 6f93 023e
000001e0: a13e 04be 989b af3d 7d81 383e e283 563e
000001f0: f091 16be 5557 333e f58e 883e 2269 00be
00000200: 2919 fc3d 362f 9c3e b337 b4bd 707a a5bd
00000210: a7d0 623d 33af 073e 642d 11be c2c3 363e
00000220: fdda a3bd 1d0f f73d 9634 09bd ca3c e33c
00000230: b40d b3bc 23b1 8b3e a194 0f3e 61f8 733e
00000240: 5da2 26be 3935 23be d566 1bbe 0efa 6abd
00000250: de12 98be c51c f4bd ace3 39be 476d 893c
00000260: 8560 723c 3c00 fcbd 461d 823e e3cf 0ebc
00000270: 95c4 b8bd e167 433d 9971 823e 4dcd 083e
00000280: d8fb af3d 705d 9dbe 6214 1cbe 47b2 a53e
00000290: f900 fa3e f975 9abd 7e73 e0bd dc31 223d
000002a0: 3530 313e 73a9 9b3d 5593 e73c 30c7 c33d
000002b0: 7e72 273f d8d7 4abe 3b37 ee3d ff31 93be
000002c0: 5824 233e bb38 633e 7a32 2c3e 3fcc dc3d
000002d0: bb18 fe3e c150 dd3d 7b8c 263e 77b7 0d3d
000002e0: 0c59 90bd 6df5 f13d 4ead ba3c 6987 773c
000002f0: db17 d8bd 705b b3be 9eef ccbd 80f0 92bd
00000300: 0664 e3bd 849a 043e b4a9 e33c 712a ea3d
00000310: ed59 4c3d 5db2 383e 5ad2 89bd 2f64 f7bc
00000320: 6d03 f53d dd4c 9d3d 27dd 2abe e95b 8b3d
00000330: ccbd 11be 0b8a 08be c619 2bbe 0afd e1bc
00000340: 2e8b 693d 64b2 87bd a6a5 42be b6be 75bd
00000350: 6b72 2c3d 0cd8 97bd b711 34be 19a8 173e
00000360: c8c5 b1bc 9741 fbbd 7173 eebd a32e 3f3e
00000370: 15b1 a5bd 2296 5e3e 19df aabd fab8 97bd
00000380: e2e3 14be 58c6 583e 62c5 2ebd 51e1 f8bd
00000390: c97e dd3d 3536 b7bd b013 183e 822d 753e
000003a0: 6c40 1cbe 84d5 91bd 8065 6b3d d831 0f3e
000003b0: 39ba 85be 7df8 9a3e 8634 ecbd 54e0 8e3e
000003c0: 9f52 e7bd eccd 3bbe f63f cebc f6ed 033e
000003d0: 3dd6 07be 916e 59bc f6f1 003d e35e 1f3c
000003e0: 8e22 3c3c c3a4 22be 5d3a d13b e9d8 b4bd
000003f0: 0d0c 9abd 80f9 293d e46c 963e 47cb 34bd
-0.117971875 -0.0010016521 0.079015255 -0.023997767 0.0039292104 -0.041314833 0.11089836 0.11500964
0.03082699 0.11383906 0.13973266 -0.13248707 0.31711757 -0.071699426 -0.16294128 -0.16055231
0.14969003 0.05212694 -0.004080906 -0.092966385 0.09595451 0.05403475 0.1545216 0.022692699
-0.109838724 -0.1334228 -0.16915667 0.09703958 -0.013065459 0.0010695907 -0.07229009 -0.11053639
0.02497677 -0.122129805 0.064948544 0.012601844 -0.09691134 -0.1132205 0.1351753 0.08623498
-0.044219535 0.14234887 0.04869276 -0.023007795 -0.025119979 0.07050916 -0.014229345 0.20738503
0.08007477 0.091710106 0.041305553 0.10045679 0.06287399 -0.066517726 0.0032247172 0.11883181
-0.020599293 -0.025053814 0.046973605 -0.015775414 -0.14199245 -0.030231237 0.22757761 -0.17565493
-0.09026321 0.049098935 -0.09847949 0.13010171 -0.014343701 -0.072528675 0.025021045 0.18396473
0.012857288 0.039667044 -0.08552683 -0.042875987 -0.13371623 0.18312731 0.00026192158 0.057530813
0.1488495 0.036341596 0.018393282 0.006791876 -0.027114673 0.03687005 0.030471899 -0.04387538
-0.06800122 -0.013177655 -0.059007376 -0.144268 -0.14470945 -0.07180059 0.16574223 0.009111179
0.076679975 0.23738773 -0.16630478 -0.23780924 0.04178486 0.14038564 0.024373524 -0.05050226
0.028611612 0.17158654 0.121916294 -0.03980049 -0.2304392 0.292701 0.117767416 0.2702604
0.107065156 -0.12665734 -0.17861204 -0.12219317 -0.16766654 0.100734055 -0.17061417 0.12751554
-0.12914516 0.08574599 0.18018146 0.20948747 -0.14704108 0.17513783 0.26671568 -0.12540105
0.123094864 0.3050477 -0.08799686 -0.08079994 0.055374768 0.13250427 -0.14177471 0.17848113
-0.08000753 0.120634295 -0.033497415 0.027738947 -0.02185712 0.27283582 0.14021541 0.23825218
-0.16272874 -0.15938272 -0.15175946 -0.057367377 -0.29701895 -0.1191955 -0.18153256 0.01677574
0.01479352 -0.12304732 0.2541296 -0.008716556 -0.0902187 0.04770649 0.25477293 0.13359566
0.08592957 -0.3073535 -0.1524215 0.32362577 0.48828867 -0.07542033 -0.109595284 0.03959833
0.17303546 0.07600679 0.028268496 0.095594764 0.65409076 -0.198089 0.11631628 -0.28749081
0.15931833 0.2218961 0.1681613 0.10781144 0.49628243 0.10806418 0.16264527 0.034598794
-0.07048234 0.118143894 0.022787716 0.015107968 -0.10551425 -0.350307 -0.10006641 -0.07174778
-0.11103062 0.12949568 0.027790882 0.11433876 0.049890447 0.1803679 -0.067295745 -0.030199138
0.11963544 0.07680676 -0.16685925 0.0680464 -0.14232558 -0.13333909 -0.1670905 -0.027586479
0.057017498 -0.06625822 -0.19008502 -0.05999633 0.042101305 -0.074142545 -0.17584883 0.14810218
-0.021700755 -0.1226837 -0.116431125 0.18670134 -0.08090416 0.21736959 -0.08343334 -0.07408328
-0.14540055 0.21169412 -0.042668708 -0.12152351 0.10815198 -0.08945886 0.1485126 0.23943141
-0.1525895 -0.07120803 0.057469845 0.13983858 -0.2611864 0.30267707 -0.115334556 0.27905524
-0.112950556 -0.18340272 -0.025176983 0.12883744 -0.13265319 -0.01327099 0.031480752 0.009727213
0.011482848 -0.15883164 0.0063851313 -0.08830435 -0.0752183 0.041497707 0.29379952 -0.044139173

layer.4.bias f4 [32]
00000000: 5664 533e f46b 22be 5171 eabd a3ad 843e
00000010: 521d 963d 867a 6a3e c41b 0b3e 59fc dc3d
00000020: 406c 0dbe b0ee 33be bb99 11be 8e53 813e
00000030: 4994 37be 31cd 3d3e 53d9 f3bc f438 eb3d
00000040: 7627 303e 4fcb 71be cb51 90bd 821e 15be
00000050: 0127 21bb 957d 393e 816e 493e 22e0 e9bb
00000060: da21 443e ccc7 abbd 6712 1ebe 9535 623e
00000070: a16e 013e 15ba 003e e9f6 123e df49 f3bd
0.20643744 -0.15861493 -0.11447395 0.25913724 0.07329811 0.22898301 0.1358481 0.10790319
-0.13810825 -0.17571521 -0.142188 0.2525906 -0.1792766 0.18535306 -0.029766714 0.11485472
0.17202553 -0.23612712 -0.07046851 -0.14562419 -0.0024589899 0.18114312 0.1967106 -0.0071373144
0.19153538 -0.083877176 -0.15436707 0.22090752 0.12639858 0.12570985 0.14352001 -0.11879324

last_fc.weight f4 [1, 32]
00000000: fe73 cb3e a0db 79be 84c9 1cbe 7d75 35bf
00000010: e856 22bf 70d9 973f 6d39 6abe b8c2 18bf
00000020: a161 8e3d f4ec f2bc d016 0abd d553 223f
00000030: 9656 dcbd 182e 6cbf 4748 483f a014 ddbe
00000040: 3a2c abbe 7563 d6bd aeb1 69be 6310 903d
00000050: c4fc 6cbe c3c4 013f cdf1 963e c813 133d
00000060: 614f 49be 841d b0bd 0a73 dd3d 0c07 14bf
00000070: e738 213f fd3a a33e f387 7f3e 90fb 08be
0.39736933 -0.24400187 -0.15311247 -0.708824 -0.6341386 1.1863232 -0.22873469 -0.5967212
0.06952215 -0.029654004 -0.033713162 0.6340917 -0.107587025 -0.92257833 0.78235286 -0.43179798
-0.3343218 -0.10468189 -0.22821686 0.070343755 -0.23143297 0.5069086 0.29481354 0.035907537
-0.19659187 -0.0859938 0.108129576 -0.5782325 0.6297745 0.31880942 0.24954204 -0.13377213
