synthetic&adversarial/logreg_weights.npy (npy, 3208 bytes, 1 tensors)

array f8 [1, 385]
00000000: ab6a 9ae1 f5e9 94bf 0f47 2cd2 1fac 9a3f
00000010: dc47 bb1b d8f8 9bbf edc0 3f70 48df a2bf
00000020: ba7a 7e75 0be4 94bf 315d 4653 ffb5 6e3f
00000030: aa97 6945 ce0b 41bf 31bc d391 ed3f aebf
00000040: b534 3bb4 326a 723f 5f50 0672 2786 563f
00000050: b086 f278 ba9a a7bf c36a 9c24 6381 b5bf
00000060: 5c15 2e1d abb5 a53f 56f3 7187 d648 97bf
00000070: 6194 8a8b 21a8 acbf 6ca7 19b0 aa49 a2bf
00000080: a0e1 2319 d64b 87bf b18b 92d1 a066 8dbf
00000090: 1819 7166 bb94 a6bf b63a 8ab4 fac2 b13f
000000a0: 9343 a8c1 0479 97bf 99fd 6204 207c adbf
000000b0: c7ec 7bfd b8ba 65bf dba7 4df0 1b05 84bf
000000c0: 2f61 01fa 7b6a a6bf 72f1 0631 966f a3bf
000000d0: cefc 301b 85b0 95bf e8f2 669c a276 943f
000000e0: 42e5 bdab 0acd b7bf 5e45 8311 e018 b63f
000000f0: 2f8a e0b4 8a23 a1bf 7aa0 c19e f1ae b3bf
00000100: 8c09 c15b aca7 9cbf 10e0 a544 f6ae 9fbf
00000110: e005 16f8 b011 a8bf f72e 74ff 5bda a8bf
00000120: bf4f 8c87 081f 83bf 2996 654f d677 8dbf
00000130: f32e 7c9c e953 8cbf 4876 2719 8e5c 86bf
00000140: 670b 7477 6c03 913f 70c8 5194 9483 acbf
00000150: 15ec 9981 b412 a1bf 24f0 8f48 0bdd a13f
00000160: f420 dad1 7bb4 8dbf 8642 14d5 4ba1 94bf
00000170: 0f73 2ecd 13ac 89bf 1ab2 dcad 9661 82bf
00000180: 1eae 78cf 0dac a13f bbe5 364b 409e 9bbf
00000190: 158e 7a04 af98 7e3f dbb1 3643 9446 7d3f
000001a0: d999 6b20 578e a4bf 5aa9 de62 5c05 a6bf
000001b0: fdf1 fce2 7c47 b6bf c9f5 9119 c67c a6bf
000001c0: d96a db64 fa0e ac3f 12f2 5846 7dda 983f
000001d0: b388 28e5 242e b7bf 6521 aef1 f071 853f
000001e0: 6d4b df73 2bcb a7bf 964c b28f 6817 aa3f
000001f0: 478c 12a3 733a 563f 5871 7383 874a acbf
00000200: 505e b4b6 8418 873f 4608 80c6 610a a43f
00000210: 37a0 fe43 55b3 963f 5e13 9b94 7c28 95bf
00000220: a3b2 17f5 a551 703f 4dd7 0885 9603 b6bf
00000230: c5b7 4e00 5d51 75bf 3bfc 6310 e7e6 86bf
00000240: 2d7f f772 7947 b1bf 6085 12e0 3842 72bf
00000250: f7f6 16c8 c176 ad3f 4b4f abcb d149 90bf
00000260: fc83 1597 9f4b 57bf 2554 18d4 0579 9ebf
00000270: 6836 5591 1b50 8cbf 6b70 00e0 801a 73bf
00000280: 351f e93c 095b abbf 50b0 a6bc 92b3 823f
00000290: c878 7543 19e9 7fbf 6fb2 e439 11a9 533f
000002a0: a2cf 6780 14a3 943f 2cb3 10e5 ded4 a0bf
000002b0: 3ae2 e66c 8b89 60bf f62b 2d13 0318 a2bf
000002c0: 11ee df9d 1e3e 93bf fed6 bf28 348c 7f3f
000002d0: 4650 1b6c b6fb 9c3f 207a 0683 2942 a43f
000002e0: e739 6650 e0ca 8b3f 147e cf39 1da2 acbf
000002f0: 7ef5 bc4c 6325 90bf 766d eca5 54db 8dbf
00000300: 9706 00c4 25a4 7ebf 6c4c 854e a7cf a1bf
00000310: 3942 ffc4 53f5 9dbf 3cc4 200d 0716 913f
00000320: c0b3 35a8 eeed 8c3f 988a 32e1 9ecc 7dbf
00000330: 697d f8e8 fab8 98bf c9c1 62e8 77fd 8a3f
00000340: 3cfd 7a1d 9420 86bf 073d 144d 8fa2 993f
00000350: 979f 25de f701 abbf 336e f0e1 25ac 6e3f
00000360: 29d0 e8c8 d9aa a1bf 84bd 541f 7c8c 9b3f
00000370: ddfe 7a57 ec9a 663f c510 050e 4a2c 6bbf
00000380: 8d2f 7621 7d7d 893f 7a38 36ed aaf7 a7bf
00000390: 4c60 2088 f36e 89bf 3e1b 1964 334c a9bf
000003a0: 49c6 4ea2 4bf2 75bf 2fa3 cbda ddec a33f
000003b0: 45a3 047a 5e94 83bf e980 ec0f 4a88 7cbf
000003c0: e550 2c32 b56d 553f a099 9f07 a062 933f
000003d0: f48c 0c61 6c23 77bf ab4b 3e19 2167 b93f
000003e0: 9bd2 da88 d1a0 a1bf a8e9 f2df d27c b2bf
000003f0: 7112 ac73 b3a2 a9bf 97eb 17f4 ac2b d33f
00000400: 1c56 369b b05b a13f 3b14 6c3e f348 9c3f
00000410: 89f1 cdf4 ebca a9bf 24cc 8e08 2926 a8bf
00000420: 3d22 6c7c 9fa2 b53f 0d88 5e96 51c4 9dbf
00000430: a297 977e 85e7 9f3f cf87 176e 9535 733f
00000440: 38b2 855f 0f0e 6fbf 0dd0 5123 aec8 acbf
00000450: 5035 28e3 8b58 923f 4297 dda3 305c 80bf
00000460: 2c83 66ae 005a b1bf e38e 307d 5ecf a93f
00000470: 4dc5 7468 887c b1bf 4447 4ca7 7b5b 893f
00000480: 0248 2c34 55bb 78bf e33c 762f 3169 a43f
00000490: 96d9 85e6 6217 9bbf 7544 f41d fead a5bf
000004a0: 282f 23ba a4ef 8ebf 18ac ee76 ae8e 82bf
000004b0: 7df9 bef8 3196 7dbf 983e e15e 51a7 a43f
000004c0: 2ce4 2e92 7220 843f 0351 7b79 96df adbf
000004d0: 40c6 06a8 8f84 9a3f 7ae5 0f21 dc58 98bf
000004e0: d7a3 8986 92af 86bf 6f00 227a e722 943f
000004f0: ddf1 f1d8 8e05 903f ea08 3bd0 fab5 7bbf
00000500: 2c5f 9785 02a3 a4bf 741f 198d 415a 9a3f
00000510: 7b40 64dd f802 8dbf 40fb 2a88 8bf5 96bf
00000520: c113 0479 8560 97bf a854 a7e0 657e adbf
00000530: 82e2 c996 ebcf 57bf a5af 2999 488f 643f
00000540: 4311 b296 05e5 99bf 2ef6 8508 0912 afbf
00000550: e14a 68a2 c93e b5bf 049e 54dd f40b a5bf
00000560: ad2b 7eb8 25dd 923f 9994 38ad 2bb9 8f3f
00000570: 8066 cf87 53fd b1bf a8fc 1090 fb74 9bbf
00000580: 8cb2 6179 7fcb a73f 226b a1ea 3069 953f
00000590: b5ea 1117 c40b 8dbf 7fc3 7788 ba72 9e3f
000005a0: ba35 5862 1a41 98bf 077c 93d1 a1a3 993f
000005b0: ecc0 3125 2af0 bd3f 9aa3 3fe4 6335 60bf
000005c0: ab33 7a37 3a0b a6bf a161 d284 0701 6d3f
000005d0: f753 4934 6ab2 a6bf 49ab 308e 9f0c af3f
000005e0: 92aa 1ee3 fd61 a8bf 9592 3e10 eca8 a9bf
000005f0: 5117 b7b5 3c6d a9bf 6660 a452 4b9c 90bf
00000600: dd90 d3ed a845 9b3f 2d9c 9d52 0083 9b3f
00000610: 740b dd27 314d 83bf 2d50 9e76 b004 1d3f
00000620: f357 b22f 321e 99bf 5fd1 388e e539 953f
00000630: bce0 435b f472 873f f821 1537 1118 95bf
00000640: 0b03 3288 fae5 80bf e200 bf35 6689 983f
00000650: 74c8 edc9 b58f 93bf c8c4 e3f4 7cec a3bf
00000660: 0a46 cb14 1e21 a03f 0052 e964 f5da a5bf
00000670: 2a78 91fb a45f 913f 0fca ea21 6e84 96bf
00000680: e368 818e 35a0 7b3f 6853 cd53 1f2d 713f
00000690: 576d 2548 6edb 87bf 54e5 e62c bc93 b3bf
000006a0: a9c5 5d16 8624 91bf 4169 3d57 e9b4 a23f
000006b0: 9523 1476 1766 9ebf 2276 1343 8b1b 9dbf
000006c0: f152 39ab 822e a8bf d6bb 0107 4bd6 b5bf
000006d0: 1515 7552 9bca b2bf 3f1a ee2e 50d9 953f
000006e0: 0f7c 861b e417 a7bf 3703 7d61 fd01 b9bf
000006f0: 7808 5b00 d421 85bf 453b e74f 8287 d03f
00000700: d5e8 91f4 05b8 7abf 06fc 18ef d691 623f
00000710: 15e1 6a82 b868 873f f695 f786 1468 a23f
00000720: 0e06 5fe3 d1d6 7abf 58f5 1cbe 4860 aa3f
00000730: 4146 acac fb10 64bf 0610 3c79 aaa0 b1bf
00000740: 3f8c b048 bc49 acbf b6a3 d82b 265d b3bf
00000750: caed 00be 6e03 abbf 3750 b3de 4688 a7bf
00000760: 5a2a 5bba 9d7e 79bf 7286 ee0e 7acf a63f
00000770: f4a2 5380 98cf a83f 6430 96b5 2553 973f
00000780: 4b0c d6bd ab72 abbf 1ce7 48fa c740 a3bf
00000790: efc1 869e 80b6 593f c1d3 f9ce a319 b6bf
000007a0: 9ee8 f81b 5fe8 a6bf f3cd 84a6 5adc 843f
000007b0: fd1c 1414 94f7 91bf 181e d6de ef5d a4bf
000007c0: dfef e84c 2b12 ae3f 0c96 73cc 69bb 983f
000007d0: afc9 6853 44aa a53f 0b11 6757 5a50 653f
000007e0: 5699 1799 5d69 66bf c34b 5ee8 d653 97bf
000007f0: 742d e3be 7e55 95bf da7b 26cb f805 a2bf
-0.02042373837921711 0.026047227099360856 -0.027316452686882417 -0.0368597638151885 -0.020401171728390045 0.0037488924810521675 -0.0005202061827957922 -0.059081481982382285
0.004495809614764192 0.00137475826349933 -0.04610235906990334 -0.0840055431730589 0.0424016450042852 -0.022738792435564058 -0.055970238002637236 -0.035718282696349885
-0.011375115053383678 -0.014355904002803262 -0.04410348535070535 0.06938139827455356 -0.022922586746122752 -0.057587624106868414 -0.002652512844972674 -0.009775369902587918
-0.04378116061042402 -0.03796071384883505 -0.0211811826559341 0.019983807369260115 -0.0929724377910093 0.08631706645544088 -0.03347428758595005 -0.07688818097961017
-0.02798337278387346 -0.030940864505709043 -0.047009973796786175 -0.048540949757890965 -0.009336535107230646 -0.01438872747230409 -0.01383192547611809 -0.010918722288745589
0.016614622870302933 -0.05569137869396534 -0.03334583360716451 0.03488955746431113 -0.014504401532818602 -0.020146546249693496 -0.012535242747441026 -0.008975197964525217
0.034515792442416635 -0.026970867720341945 0.007469829237070087 0.007147387648199967 -0.04014847059970678 -0.0430096502962722 -0.0870283178491675 -0.04392069875846578
0.054801773845346076 0.02427097074381563 -0.09054785341916975 0.010471231818670554 -0.04647193707901107 0.050959842244219164 0.0013567094104380993 -0.05525611381173928
0.011277233911228951 0.039141707879040186 0.022168476367056846 -0.020662256784606974 0.003984115859094447 -0.08599224803842027 -0.005204547201101255 -0.011182599246693061
-0.06749686295324571 -0.004457685631821334 0.05754666869641583 -0.01590659909818663 -0.0014218386171125355 -0.02975854022050241 -0.013824668286044076 -0.004663947504038739
-0.053428925214176116 0.009131571180511028 -0.007790659604635937 0.0011999767517167045 0.020153351151705252 -0.032874074422898 -0.002018711390715103 -0.03533944710815
-0.018791654954823104 0.007702068087373835 0.02830395731764692 0.039567277187632977 0.013570549443810044 -0.05592433291144175 -0.015767623480532837 -0.014578496278366809
-0.007480762025808516 -0.03478739579681975 -0.029256161593197858 0.016685590912121948 0.014125694759707375 -0.007275219558467903 -0.024143143147850852 0.01317876508650863
-0.01080432620017168 0.025034178809673537 -0.0527493914294716 0.003744195928005367 -0.03450661256320615 0.026903094684880738 0.0027594200181225562 -0.0033170172102093575
0.012446382125538747 -0.04681142945911261 -0.012418654052496113 -0.04940949055576603 -0.005358024068230779 0.03891652389376642 -0.00956033525342693 -0.006965913110235735
0.0013078946582867842 0.018930912461564753 -0.005649016719675649 0.09922987810413868 -0.03443007274237183 -0.0722171589613142 -0.05006943499578121 0.2995407470440851
0.033902663180168185 0.027622032818744407 -0.050376294740064394 -0.04716613988366472 0.08451267993599117 -0.0290692089107623 0.031156621791431534 0.004689773284072231
-0.003790884042407929 -0.05621856862208583 0.01791590284306227 -0.00798833847120373 -0.06777958162139147 0.05041022566027011 -0.06830647039602873 0.012381521266010893
-0.006038029506060029 0.03986505226486672 -0.026456399269102336 -0.042343083530917015 -0.015105521135772529 -0.009061205868269126 -0.007223315431416186 0.04033903392030175
0.00982751377692822 -0.058346464471158675 0.025896305685540577 -0.023776473539304878 -0.011077065211070476 0.01966439898433275 0.015646202079084282 -0.006765346278998255
-0.04030616646531224 0.025734924542376317 -0.014165825134597512 -0.022421055017498803 -0.022829137335992792 -0.057604964898623934 -0.0014533806489948346 0.002509729188480097
-0.025287711451271077 -0.060684473314705265 -0.0829893132688926 -0.04110684587277194 0.01842173517756478 0.015489903663431103 -0.07027170243909531 -0.02681344096003771
0.046474441115468584 0.020909084625922898 -0.014182598070182942 0.029734530047736293 -0.023685848476864037 0.025038269440184304 0.11694587143006502 -0.0019785834319816066
-0.043054408332955894 0.0035405299045800508 -0.04432994735967804 0.06064318285674248 -0.047622617697318806 -0.05011689852043336 -0.049661538297682946 -0.016221215170930135
0.026632918849728838 0.02686691765066145 -0.009424575833355077 0.00011069609686692522 -0.024529251252339134 0.02072867088846075 0.011449727091971666 -0.020599621760341663
-0.008251149445869929 0.023961636572267582 -0.019102898072965904 -0.0389136361062668 0.031502666509947444 -0.04268614632443146 0.016966417173868965 -0.021989556141031538
0.0067445842797388715 0.004193422672717918 -0.011648999764182362 -0.07647300811995211 -0.016740889659052325 0.03653649511280089 -0.029686323720884273 -0.028425384491916124
-0.047229846383435865 -0.08530110283912448 -0.07340403330916374 0.02133679663122678 -0.04510414920809335 -0.09768661146246137 -0.010318428288318623 0.258270814924732
-0.006523154509631553 0.0022668073586653596 0.011430207710291055 0.03595031878993986 -0.006552524448069542 0.051515839774291805 -0.0024495044248247504 -0.06885781726674631
-0.05525005709957797 -0.07564009256806412 -0.05276056355838994 -0.04596158474456085 -0.0062242661712824335 0.04455167228958325 0.04845882956016637 0.022778119285746704
-0.05360924427352439 -0.03760361604913795 0.0015693908736517067 -0.08632873347398996 -0.044741604008281075 0.010185917097806451 -0.017545999265192503 -0.039779182388027745
0.05873236955491711 0.024152424911241296 0.04231465833835856 0.0026017918091573214 -0.0027357891165024446 -0.022780759747160106 -0.020833950424998318 -0.03520181159841913
